…
lr_reduce=False, ls=1, mal=False, mal_E=5, mal_boost=10.0, mal_delay=0, mal_num=1, mal_obj='single', mal_strat='converge', model_num=0, optimizer='adam', rho=0.0001, steps=None, train=True)
weights/fMNIST/model_0/adam/k10_E5_B50_C1e+00_lr1.0e-03/
output
X_train shape: (60000, 28, 28, 1)
60000 train samples
10000 test samples
Loaded f/MNIST data
Initializing master model
_________________________________________________________________
Layer (type)                 Output Shape              Param #   
=================================================================
conv2d_1 (Conv2D)            (None, 24, 24, 64)        1664      
_________________________________________________________________
activation_1 (Activation)    (None, 24, 24, 64)        0         
_________________________________________________________________
conv2d_2 (Conv2D)            (None, 20, 20, 64)        102464    
_________________________________________________________________
activation_2 (Activation)    (None, 20, 20, 64)        0         
_________________________________________________________________
dropout_1 (Dropout)          (None, 20, 20, 64)        0         
_________________________________________________________________
flatten_1 (Flatten)          (None, 25600)             0         
_________________________________________________________________
dense_1 (Dense)              (None, 128)               3276928   
_________________________________________________________________
activation_3 (Activation)    (None, 128)               0         
_________________________________________________________________
dropout_2 (Dropout)          (None, 128)               0         
_________________________________________________________________
dense_2 (Dense)              (None, 10)                1290      
=================================================================
Total params: 3,382,346
Trainable params: 3,382,346
Non-trainable params: 0
_________________________________________________________________
